results/withGroundCheck/Race.onnx (onnx, 71615 bytes, 7 tensors)

action_model._continuous_distribution.log_sigma f4 [1, 2]
-0.9536947 -0.6849771
00000000: 5625 74bf a95a 2fbf

action_model._continuous_distribution.mu.bias f4 [2]
-0.006615231 0.09133807
00000000: 94c4 d8bb 740f bb3d

action_model._continuous_distribution.mu.weight f4 [2, 128]
0.05074045 -0.0038526272 0.023195157 -0.009744095 0.033343438 0.056923654 -0.0018426586 -0.13176413
-0.018055674 -0.023698239 -0.08499154 0.009955063 0.04551213 -0.039200217 -0.046818744 -0.009576691
0.070806265 -0.0008801985 0.035716627 0.061260145 -0.07676413 -0.04661944 0.0014468982 0.010139991
-0.002237399 0.049858484 0.020026833 0.095025234 0.0719322 -0.0070947846 -0.045384713 0.0073043
0.004739742 -0.063554294 -0.020325858 0.06371841 -0.017940124 -0.0642367 -0.014946223 0.046662614
0.021994187 0.02937594 -0.026149191 0.06653299 -0.034850672 0.13377064 0.07196535 -0.017018843
-0.011838441 0.080101654 -0.0068450253 0.059359033 -0.00088910555 -0.036473773 0.0837645 0.020066667
0.031105049 0.017505432 -0.023903567 -0.010798417 -0.017063264 0.028744554 0.10271229 0.094273224
0.09969953 -0.065805845 0.032856073 0.028632808 0.04292567 0.038405553 -0.014514872 0.036374796
0.04019206 -0.06931604 -0.048645116 -0.01719225 -0.033081774 -0.034643743 0.02321191 -0.0015435304
-0.0039793774 -0.0343755 0.05822375 -0.00528089 0.024970975 0.022591226 -0.0058132643 -0.041204434
0.048025742 -0.073207185 0.017480668 0.018916111 0.044062804 0.023739362 0.06625171 -0.020994179
-0.007903752 -0.021044455 0.06906106 -0.038133964 0.101837635 -0.05620247 0.09933696 -0.05463755
-0.03576926 -0.007397108 -0.0033823834 0.11689035 -0.043203518 0.14681827 0.106939465 0.048593048
-0.04810624 0.008952187 0.027504407 0.015194689 0.033822328 0.03864933 -0.022383196 0.01339179
-0.023025531 -0.0657716 -0.0067693996 -0.0061484952 -0.03122302 -0.012043763 0.07251592 0.023426952
0.043852173 -0.016283398 -0.046170853 0.09337053 0.07161678 0.020031128 -0.004759512 -0.02978448
0.0344692 -0.013393963 -5.275957e-07 0.03618092 0.073499404 -0.0163762 -0.006106267 -0.052202486
0.034117743 -0.042914473 -0.01848102 0.0640413 -0.027272275 -0.011750368 0.0357019 -0.09876403
0.017326016 0.008003966 -0.098604806 0.09035125 -0.038853213 0.008129222 -0.023507064 0.0016910693
-0.012867804 -0.056337103 0.023414828 0.031260088 -0.12492457 -0.12266631 -0.08615827 0.05542652
0.03539051 -0.002585307 0.057664655 -0.118957 0.060982957 0.07175617 0.0015041021 -0.0427614
-0.014312165 0.035991583 0.014807456 0.09891651 0.02579191 -0.062464945 0.13172673 0.09549986
0.04529671 0.058186114 -0.05590311 0.0970378 0.03359808 -0.056040417 0.0058793114 0.09224533
-0.0009421585 0.16694401 0.011449878 0.0033935762 0.0053845583 -0.015937794 -0.0024331976 -0.039605647
0.015221896 -0.04694395 -0.07409895 -0.054971077 -0.08569104 -0.07353394 -0.059611876 0.034753352
0.072607905 -0.011584481 -0.019541772 0.07362299 -0.013385006 0.055867493 0.11733424 0.119908705
0.031764332 -0.029751208 -0.019122165 -0.038514495 0.09156713 0.004798382 0.011424966 0.04963145
0.051959656 0.026221711 0.032768387 0.11945243 0.0683879 -0.14051688 0.0430341 0.0841719
-0.00029655785 0.0451412 -0.010569482 -0.07902265 -0.039945178 0.04847664 0.0571518 0.061679006
-0.027385214 0.036515877 0.05286768 0.008856063 0.08065892 0.020509353 0.003162403 -0.05226342
0.08713938 0.053632546 0.030190045 -0.01272264 -0.05294996 -0.008039862 0.025185203 -0.018986879
00000000: 38d5 4f3d 5c7c 7cbb c503 be3c b2a5 1fbc
00000010: 2193 083d c728 693d 5d85 f1ba 2ded 06be
00000020: 7ee9 93bc cf22 c2bc 0b10 aebd 901a 233c
00000030: ed6a 3a3d 6890 20bd 03c5 3fbd 8ee7 1cbc
00000040: e002 913d 1fbd 66ba 994b 123d ebeb 7a3d
00000050: 8336 9dbd 07f4 3ebd d9a5 bd3a 3422 263c
00000060: 54a1 12bb 6938 4c3d 500f a43c 979c c23d
00000070: 3051 933d 5e7b e8bb 52e5 39bd e958 ef3b
00000080: d64f 9b3b c128 82bd 6a82 a6bc cc7e 823d
00000090: 2bf7 92bc 888e 83bd 01e1 74bc 4c21 3f3d
000000a0: 272d b43c d0a5 f03c d436 d6bc 7342 883d
000000b0: 94bf 0ebd 2cfb 083e 9262 933d 1a6b 8bbc
000000c0: 05f6 41bc 560c a43d 3c4c e0bb 7522 733d
000000d0: dd12 69ba 8665 15bd b98c ab3d da62 a43c
000000e0: 04d0 fe3c 8d67 8f3c 6ad1 c3bc d8eb 30bc
000000f0: 42c8 8bbc b379 eb3c d25a d23d 5212 c13d
00000100: 442f cc3d 37c5 86bd 1794 063d 5a8f ea3c
00000110: d4d2 2f3d 244f 1d3d c9cf 6dbc bdfd 143d
00000120: 6ea0 243d 91f5 8dbd 1a40 47bd c3d6 8cbc
00000130: c180 07bd 99e6 0dbd e726 be3c 4950 caba
00000140: 7065 82bb 53cd 0cbd 077c 6e3d 510b adbb
00000150: ee8f cc3c 3c11 b93c 327d bebb fbc5 28bd
00000160: a4b6 443d a6ed 95bd 9e33 8f3c f6f5 9a3c
00000170: 337b 343d 0d79 c23c faae 873d fcfb abbc
00000180: bd7e 01bc 6c65 acbc e36f 8d3d 5c32 1cbd
00000190: 4090 d03d 9034 66bd 2d71 cb3d a0cb 5fbd
000001a0: ca82 12bd 7063 f2bb faaa 5dbb 3564 ef3d
000001b0: 2cf6 30bd 8757 163e 1403 db3d 8109 473d
000001c0: 0c0b 45bd 32ac 123c ec50 e13c 25f3 783c
000001d0: 4889 0a3d c34e 1e3d f75c b7bc 3d69 5b3c
000001e0: 0aa0 bcbc 43b3 86bd d7d1 ddbb 5179 c9bb
000001f0: 6bc7 ffbc 3453 45bc 3a83 943d e1e9 bf3c
00000200: 569e 333d c364 85bc a61d 3dbd 0c39 bf3d
00000210: d1ab 923d 5218 a43c aef5 9bbb 95fe f3bc
00000220: 932f 0d3d 5a72 5bbc 1aa0 0db5 7232 143d
00000230: db86 963d 6127 86bc 1517 c8bb 46d2 55bd
00000240: 0cbf 0b3d 16c7 2fbd 8265 97bc 1628 833d
00000250: 1b6a dfbc 9e84 40bc 283c 123d cc44 cabd
00000260: 4aef 8d3c 1123 033c 51f1 c9bd 130a b93d
00000270: 8c24 1fbd 6e30 053c e391 c0bc dfa6 dd3a
00000280: 7bd3 52bc bcc1 66bd 74d0 bf3c 940a 003d
00000290: 74d8 ffbd 7938 fbbd bf73 b0bd eb06 633d
000002a0: a4f5 103d 416e 29bb c631 6c3d ba9f f3bd
000002b0: 44c9 793d e6f4 923d 4b25 c53a 9426 2fbd
000002c0: 927d 6abc e96b 133d f99a 723c bd94 ca3d
000002d0: 8e49 d33c 3edb 7fbd 5fe3 063e 6e95 c33d
000002e0: 0b89 393d 9054 6e3d a9fa 64bd c1bb c63d
000002f0: 249e 093d a38a 65bd 3da7 c03b 1feb bc3d
00000300: 30fb 76ba 5ff3 2a3e 4598 3b3c c366 5e3b
00000310: f370 b03b fa8f 82bc 4876 1fbb 8839 22bd
00000320: 4265 793c 4d48 40bd 31c1 97bd 5a29 61bd
00000330: c97e afbd f698 96bd 952b 74bd 8859 0e3d
00000340: 74b3 943d d6cc 3dbc 1116 a0bc a6c7 963d
00000350: c94c 5bbc 50d5 643d ef4c f03d b292 f53d
00000360: 511b 023d ceb8 f3bc 16a6 9cbc 60c1 1dbd
00000370: 8c87 bb3d bf3b 9d3b c82f 3b3c 594a 4b3d
00000380: a6d3 543d eace d63c 2538 063d 7aa3 f43d
00000390: f50e 8c3d a8e3 0fbe 8644 303d 5162 ac3d
000003a0: 527b 9bb9 fbe5 383d 9f2b 2dbc a1d6 a1bd
000003b0: 8e9d 23bd 718f 463d 0118 6a3d 20a3 7c3d
000003c0: f556 e0bc ac91 153d c88b 583d 0519 113c
000003d0: 8130 a53d 3b03 a83c 5140 4f3b 2b12 56bd
000003e0: 2276 b23d cdad 5b3d 1d51 f73c 9f72 50bc
000003f0: 0fe2 58bd a0b9 03bc 3351 ce3c 5f8a 9bbc

network_body._body_endoder.seq_layers.0.bias f4 [128]
0.122237004 -0.10068081 -0.18228355 -0.08096381 0.020158404 -0.027895378 0.0769279 -0.026268335
-0.044164073 -0.015670497 -0.043387137 -0.14553547 -0.0786768 0.08102128 0.06811497 -0.0807303
0.046546105 0.03834503 -0.028361894 -0.16736275 0.0035855775 -0.05624815 0.010144017 -0.018480433
0.04344 -0.21810931 -0.10652503 -0.04044402 -0.081670515 0.11741496 0.03748657 -0.0197803
0.025713744 0.23387241 0.031263966 0.010477601 -0.036216475 -0.041781325 0.08752667 -0.19943015
0.10933945 0.08936791 0.17550299 -0.07798859 0.057207182 -0.11302808 -0.04684231 -0.13764705
0.07425876 0.06678586 0.033612516 0.08613644 -0.008309654 -0.021567997 -0.062255688 -0.0799144
-0.076565295 0.13136753 -0.07058019 0.028962832 -0.024412729 0.19326042 0.008292316 -0.084040724
0.057207894 0.043652374 -0.10488442 -0.04056133 -0.11950237 -0.0908414 -0.015300933 -0.11584269
-0.01383596 0.112454265 0.028311478 -0.0065133707 0.034673072 0.05134377 0.01046713 0.048985425
-0.17083275 -0.024477355 -0.06399523 -0.017248135 -0.08985026 0.036294032 -0.09543684 -0.16497946
0.0077643925 0.06257488 0.019476641 0.14322375 -0.114880525 0.07072471 -0.12100976 -0.022514973
-0.050387107 -0.12227732 -0.040360466 -0.055493977 -0.13717806 0.03335318 -0.24733114 -0.10560764
-0.11728148 -0.0990006 0.13427217 -0.08683467 -0.20066519 -0.090575986 -0.1509697 -0.03053206
0.1201054 -0.046291724 -0.00836647 -0.0040148436 0.014848507 0.0053774607 -0.06364899 0.066542104
-0.15431814 0.0562471 -0.0518192 -0.15217017 0.022354225 0.035382796 -0.075048834 -0.12588908
00000000: 6557 fa3d be31 cebd 8aa8 3abe 5bd0 a5bd
00000010: 3d23 a53c d984 e4bc 608c 9d3d b130 d7bc
00000020: 63e5 34bd 6a5f 80bc b6b6 31bd 4007 15be
00000030: 4d21 a1bd 7cee a53d dd7f 8b3d ed55 a5bd
00000040: 21a7 3e3d ae0f 1d3d 3457 e8bc 2461 2bbe
00000050: 02fc 6a3b 7664 66bd 1733 263c 4764 97bc
00000060: 24ee 313d 0c58 5fbe cc29 dabd a1a8 25bd
00000070: df42 a7bd 4177 f03d 858b 193d 4c0a a2bc
00000080: a1a5 d23c 407c 6f3e a50e 003d 3eaa 2b3c
00000090: ba57 14bd e522 2bbd 2f41 b33d 6b37 4cbe
000000a0: 5ded df3d 8606 b73d 0eb7 333e 7bb8 9fbd
000000b0: 1452 6a3d 447b e7bd b9dd 3fbd 59f3 0cbe
000000c0: fa14 983d 06c7 883d 47ad 093d 4d68 b03d
000000d0: 3725 08bc 5eaf b0bc d2ff 7ebd 29aa a3bd
000000e0: 44ce 9cbd 3685 063e 598c 90bd 7643 ed3c
000000f0: 34fd c7bc 0fe6 453e 7fdc 073c 8b1d acbd
00000100: d352 6a3d d5cc 323d a5cd d6bd a323 26bd
00000110: a9bd f4bd 0e0b babd c4b0 7abc ef3e edbd
00000120: 39b0 62bc 6c4e e63d 79ed e73c 1d6e d5bb
00000130: 5a05 0e3d d84d 523d 537e 2b3c f1a4 483d
00000140: c8ee 2ebe bc84 c8bc ee0f 83bd f64b 8dbc
00000150: 6a03 b8bd 0da9 143d 6474 c3bd 60f0 28be
00000160: 726c fe3b 4227 803d 7a8d 9f3c 3fa9 123e
00000170: 7b46 ebbd 1ed8 903d f7d3 f7bd 5271 b8bc
00000180: b662 4ebd 886c fabd 0451 25bd a74d 63bd
00000190: 6878 0cbe 589d 083d 6044 7dbe d248 d8bd
000001a0: 4631 f0bd d4c0 cabd a57e 093e 60d6 b1bd
000001b0: 2d7b 4dbe e77f b9bd cd97 1abe 5f1e fabc
000001c0: d2f9 f53d 649c 3dbd 8513 09bc f38e 83bb
000001d0: 2747 733c 6935 b03b 675a 82bd 3a47 883d
000001e0: 9305 1ebe 5c63 663d 5f40 54bd 7fd2 1bbe
000001f0: 3520 b73c 8ded 103d 34b3 99bd 11e9 00be

network_body._body_endoder.seq_layers.0.weight f4 [128, 4]
-0.49740842 -0.22213566 -0.34755412 0.070190236 -0.012332509 0.535465 0.4212794 -0.7540879
0.54098725 -0.38212696 0.5043201 -1.139438 -0.29002756 -1.2343956 0.5610881 -0.3059641
-0.29601842 -0.014557145 -0.0663228 0.034419123 0.48597127 -0.12409376 -0.081307516 0.27663237
-0.5772939 0.7176416 0.0003076064 -0.0811038 -0.09218362 -0.13766192 0.35376912 -0.64827436
-0.26592186 -1.2549384 -0.3898825 0.4354709 0.23193938 -0.011558455 0.4064347 0.69509095
0.23274586 0.2034904 -0.20692308 0.06721895 0.08140642 0.4002297 0.12263201 -0.0312777
-0.20119503 0.031924743 -0.28496966 0.8417066 0.7549301 -0.59565014 -0.04205918 0.6065758
0.20641351 -0.3656215 0.24610229 -0.20055054 -0.23461096 -0.10547801 -0.32924643 -0.10393105
0.16846779 0.03884528 0.18267143 -1.2139777 -0.113262 0.9263894 -0.8301213 -0.13231201
-0.14674276 0.09945717 -0.94525707 0.6469062 -0.50554794 -0.32091954 -0.0553264 0.46108678
-0.14836803 -0.9536836 0.13160141 -0.41689992 0.5224471 -0.4836132 0.16155492 -0.39043018
0.5126665 0.3564809 -0.32469967 -0.59238976 -0.20219335 -0.3123245 -0.064552434 0.07089338
0.28820884 -0.28042653 -1.0137584 1.2238741 0.45996374 -0.32923162 0.69183564 -0.8737154
0.25817338 0.12880222 -0.108448155 0.0016192023 0.7721175 1.3339055 -0.22370416 0.10095479
0.56276625 -0.19356494 0.48718822 0.112338826 1.1727321 -0.009556621 -0.73202026 0.2874973
0.37665445 -0.5015688 -0.28193343 -0.32141894 -0.4604537 -0.09382897 -0.7114958 -0.12007187
-0.5444125 0.4121899 0.109042495 -0.31376582 -0.55760616 -0.3439297 -0.38472387 0.04698769
-0.12790225 -0.92665136 -0.85185385 -0.9949899 0.67710185 -0.83436036 0.17491005 -0.17616902
0.9376901 -0.1971811 0.9962372 0.069365375 0.19614735 -0.497937 -0.85847986 0.3269755
-0.5351034 -0.2177337 -0.06809908 0.09507522 0.06846045 0.04389436 0.22774181 -0.44574264
-0.6928744 -0.2524449 -0.19572863 0.14260504 -0.26002565 0.13059244 -0.20021668 -1.2037251
-0.09997336 -0.35430366 -0.17194785 -0.45210952 0.6567787 -0.34141558 0.41158465 -0.12972046
0.3928456 0.3475634 -0.32729983 -0.7713006 -0.26079577 0.0695631 0.061494734 0.22705473
-0.11366805 -0.5170297 0.043238234 0.090674564 0.39552686 0.68957245 0.13413396 -0.6725551
-0.42420036 0.75694185 -0.17622764 -0.11042408 -0.44898975 -0.43146876 0.12706155 -0.090146676
0.6803925 -1.0150054 0.62415254 -0.81127286 -0.258074 -0.45808834 0.13222119 0.062495377
0.2144391 -0.3279635 0.13921705 0.727717 -0.4389823 0.40186852 -0.7484081 0.30622914
0.15904255 0.2515638 0.7936063 -0.29178643 -0.74143434 0.15345375 -0.13715135 0.4761376
0.08587664 -0.5393797 1.0356206 -0.53072715 0.024084989 -0.29192233 -0.48741665 -0.5908692
0.13792188 0.33532107 -0.14331307 -0.25887012 -0.4810101 -0.46640906 -0.46772498 0.5040984
0.013284191 0.30599976 0.24726003 -1.0666246 -0.00274736 -0.47386202 -0.27871463 -0.1335752
0.09005726 0.025140472 -0.64710665 0.91959107 -0.4627162 -0.7356538 0.64514714 -0.25603402
00000000: 51ac febe 8877 63be 9df2 b1be e6bf 8f3d
00000010: 4b0e 4abc 3c14 093f efb1 d73e e80b 41bf
00000020: 247e 0a3f 25a6 c3be 1f1b 013f 1bd9 91bf
00000030: 7e7e 94be ad00 9ebf 78a3 0f3f 54a7 9cbe
00000040: ba8f 97be 1781 6ebc 40d4 87bd 11fb 0c3d
00000050: 3ad1 f83e df24 febd 8e84 a6bd c2a2 8d3e
00000060: 88c9 13bf 5cb7 373f 3b46 a139 c019 a6bd
00000070: c4ca bcbd 3ff7 0cbe 3a21 b53e 4ff5 25bf
00000080: e926 88be d2a1 a0bf ae9e c7be 0bf6 de3e
00000090: 8481 6d3e ad5f 3dbc 3618 d03e 7bf1 313f
000000a0: ee54 6e3e ca5f 503e a5e3 53be 17aa 893d
000000b0: 69b8 a63d e8ea cc3e 7e26 fb3d 0c1d 00bd
000000c0: 1206 4ebe 85c3 023d 8be7 91be 157a 573f
000000d0: 1943 413f 877c 18bf 3f46 2cbd 8d48 1b3f
000000e0: 105e 533e be32 bbbe 3d02 7c3e 1f5d 4dbe
000000f0: db3d 70be db04 d8bd fd92 a8be cdd9 d4bd
00000100: d282 2c3e 3a1c 1f3d 380e 3b3e 9f63 9bbf
00000110: e8f5 e7bd db27 6d3f d482 54bf cd7c 07be
00000120: bc43 16be 33b0 cb3d 5efc 71bf a59b 253f
00000130: 976b 01bf 914f a4be ef9d 62bd 9113 ec3e
00000140: caed 17be 9c24 74bf 85c2 063e e873 d5be
00000150: 18bf 053f 269c f7be a76e 253e 77e6 c7be
00000160: 1d3e 033f aa84 b63e 093f a6be dba6 17bf
00000170: c60b 4fbe ffe8 9fbe 1134 84bd 8c30 913d
00000180: 1c90 933e 1194 8fbe d6c2 81bf e8a7 9c3f
00000190: 5e80 eb3e 0c91 a8be 241c 313f d0ab 5fbf
000001a0: 4d2f 843e bbe4 033e 111a debd 6a3b d43a
000001b0: 7ea9 453f 6abd aa3f b412 65be 63c1 ce3d
000001c0: 7311 103f e335 46be bc70 f93e e611 e63d
000001d0: 161c 963f 6093 1cbc ae65 3bbf d932 933e
000001e0: dad8 c03e d066 00bf 9459 90be 0691 a4be
000001f0: 96c0 ebbe 6729 c0bd 9724 36bf 3ee8 f5bd
00000200: 9e5e 0bbf 8e0a d33e ac51 df3d eaa5 a0be
00000210: 47bf 0ebf 8e17 b0be 87fa c4be 2a76 403d
00000220: cff8 02be 0639 6dbf 1813 5abf a8b7 7ebf
00000230: 8c56 2d3f a498 55bf 9f1b 333e a765 34be
00000240: 750c 703f d8e9 49be 6709 7f3f 6f0f 8e3d
00000250: dada 483e 99f1 febe 56c5 5bbf 5569 a73e
00000260: 89fc 08bf 95f5 5ebe 8877 8bbd ccb6 c23d
00000270: fe34 8c3d 93ca 333d 2635 693e 6138 e4be
00000280: 3760 31bf 7540 81be 166d 48be 0e07 123e
00000290: 1522 85be 06ba 053e 9a05 4dbe aa13 9abf
000002a0: d5be ccbd 4a67 b5be 1913 30be e67a e7be
000002b0: a622 283f 06ce aebe 39bb d23e 71d5 04be
000002c0: 0f23 c93e d4f3 b13e d893 a7be f573 45bf
000002d0: 0687 85be 1977 8e3d e7e1 7b3d 0981 683e
000002e0: cbca e8bd 0f5c 04bf 931a 313d 96b3 b93d
000002f0: 7f82 ca3e d287 303f 6a5a 093e 922c 2cbf
00000300: ca30 d9be f1c6 413f 0575 34be 0526 e2bd
00000310: fce1 e5be 79e9 dcbe 6c1c 023e d29e b8bd
00000320: 342e 2e3f b2eb 81bf 76c8 1f3f 94af 4fbf
00000330: 4622 84be 8e8a eabe fe64 073e 27fb 7f3d
00000340: ec95 5b3e d5ea a7be ea8e 0e3e a94b 3a3f
00000350: 4ac2 e0be b6c1 cd3e ac97 3fbf 11ca 9c3e
00000360: 0ddc 223e f8cc 803e c829 4b3f 0865 95be
00000370: a4ce 3dbf fb22 1d3e 6771 0cbe 4fc8 f33e
00000380: 18e0 af3d ca14 0abf 378f 843f bcdd 07bf
00000390: e24d c53c d876 95be ad8e f9be 3443 17bf
000003a0: 653b 0d3e 34af ab3e a9c0 12be a08a 84be
000003b0: f546 f6be 2bcd eebe a679 efbe 980c 013f
000003c0: efa5 593c 00ac 9c3e bc31 7d3e 2887 88bf
000003d0: 0d0d 34bb 0b9e f2be afb3 8ebe f0c7 08be
000003e0: f16f b83d 64f3 cd3c c8a8 25bf 526a 6b3f
000003f0: 23e9 ecbe cf53 3cbf 5d28 253f e416 83be

network_body._body_endoder.seq_layers.2.bias f4 [128]
0.07442529 0.0134470705 0.008769939 -0.072803535 -0.03444637 -0.03178497 -0.14380328 0.0350149
-0.0027621035 -0.04208338 -0.13273783 -0.1270275 -0.06682475 0.0024529337 0.008129435 -0.059400745
-0.033786144 -0.05060213 -0.037302963 0.047894463 -0.0313857 -0.054980997 -0.0040268432 0.035122987
-0.11039401 -0.085882336 -0.043561917 0.034430034 -0.1105028 -0.15842283 -0.08065913 -0.18906717
-0.027546844 -0.04320594 -0.0456261 -0.01109497 0.08342686 -0.010623968 -0.115085505 0.017066767
-0.050602943 -0.007017932 0.026955632 0.035657067 -0.06906888 0.06387557 -0.03702789 -0.015581741
-0.020592684 -0.0533607 -0.07687518 -0.010797333 -0.13119993 -0.080061845 0.02963158 0.008465582
0.04846084 -0.0200063 -0.028705675 -0.062124427 -0.03619687 -0.017625796 0.03584593 0.058879465
0.068669476 0.04386581 -0.045241512 -0.00078719284 -0.056583468 -0.054621294 -0.17476085 0.03121075
-0.08646483 -0.04297823 -0.03738957 0.027216202 0.042857267 -0.06439188 0.025583223 -0.051227167
-0.013964209 -0.11333034 -0.08379728 -0.006613335 -0.09013237 0.0041169245 0.07595422 0.052618638
0.08842539 -0.058244325 0.009354353 -0.022920987 0.010311024 -0.09088265 0.030533226 -0.055134557
-0.11986801 -0.011989217 0.06973094 0.04683654 -0.008284696 -0.013412491 -0.043801658 0.050079443
-0.07526961 -0.10591523 -0.15673977 0.07084019 -0.0026362508 0.13655321 0.08580611 -0.01699605
-0.05107328 -0.11695652 0.0027186624 -0.036270235 -0.09773854 -0.12797439 -0.00086416985 0.037461895
-0.07718959 -0.07927749 -0.044439696 -0.05371289 -0.10607577 -0.012191746 0.044424567 -0.061730225
00000000: 496c 983d 1a51 5c3c caaf 0f3c 051a 95bd
00000010: a317 0dbd f530 02bd 2b41 13be c96b 0f3d
00000020: 6804 35bb 9f5f 2cbd 6dec 07be 7f13 02be
00000030: 6adb 88bd 66c1 203b 5231 053c 324e 73bd
00000040: 5763 0abd 2e44 4fbd feca 18bd fc2c 443d
00000050: 4b8e 00bd c133 61bd 9cf3 83bb 1fdd 0f3d
00000060: 4116 e2bd 14e3 afbd fb6d 32bd 8206 0d3d
00000070: 4b4f e2bd 9839 22be 9d30 a5bd d39a 41be
00000080: eba9 e1bc b6f8 30bd 6fe2 3abd adc7 35bc
00000090: b4db aa3d 2710 2ebc f3b1 ebbd 9bcf 8b3c
000000a0: 0845 4fbd aef6 e5bb 0fd2 dc3c 250d 123d
000000b0: fc73 8dbd 32d1 823d 8faa 17bd 8f4a 7fbc
000000c0: fdb1 a8bc c090 5abd bc70 9dbd 4ce7 30bc
000000d0: 4659 06be 77f7 a3bd edbd f23c 39b3 0a3c
000000e0: e07e 463d 41e4 a3bc 2a28 ebbc 2f76 7ebd
000000f0: 2b43 14bd f963 90bc 2fd3 123d 982b 713d
00000100: 95a2 8c3d a3ac 333d 2a4f 39bd 9e5b 4eba
00000110: 11c4 67bd 94ba 5fbd 82f4 32be b0ad ff3c
00000120: 7914 b1bd f109 30bd ce25 19bd 83f4 de3c
00000130: 1a8b 2f3d e4df 83bd e893 d13c 94d3 51bd
00000140: 23ca 64bc bd19 e8bd e99d abbd adb4 d8bb
00000150: 5297 b8bd 44e7 863b e38d 9b3d a486 573d
00000160: 5f18 b53d 9a91 6ebd 0043 193c cbc4 bbbc
00000170: 92ef 283c af20 babd d120 fa3c c6d4 61bd
00000180: 5c7d f5bd 6c6e 44bc 18cf 8e3d acd7 3f3d
00000190: 89bc 07bc 11c0 5bbc 5e69 33bd 1a20 4d3d
000001a0: f426 9abd 16ea d8bd 6480 20be a914 913d
000001b0: f3c4 2cbb 9bd4 0b3e 1dbb af3d 4d3b 8bbc
000001c0: 3732 51bd e686 efbd 962b 323b 1990 14bd
000001d0: 252b c8bd b80b 03be 7589 62ba a571 193d
000001e0: 9315 9ebd 3d5c a2bd 6606 36bd 0c02 5cbd
000001f0: 413e d9bd e4bf 47bc 89f6 353d d5d8 7cbd

network_body._body_endoder.seq_layers.2.weight f4 [128, 128]
-0.2097743 -0.050936375 -0.21153091 -0.19984072 -0.052596606 0.044671398 0.005838083 -0.005686173
-0.34155267 -0.02655357 0.022391764 -0.02082898 0.057684716 0.035403606 -0.18231823 -0.041784573
-0.296263 -0.17500119 -0.21971433 -0.28203386 -0.101784475 0.039898362 -0.032738604 -0.379606
-0.18149184 -0.016165733 -0.17058134 -0.1737554 0.11358344 -0.014161221 -0.2738298 -0.1098093
-0.11401746 0.018405981 -0.08378608 -0.025431488 -0.035374198 -0.14572017 -0.16036102 -0.00023360626
-0.17762324 -0.23105921 -0.17199051 -0.014223069 -0.10359642 0.13903019 -0.12052587 0.0682016
-0.16360858 -0.14994468 -0.38856927 -0.2818549 0.025530364 -0.37368557 -0.11934166 -0.01954234
-0.25465557 -0.16818096 -0.02906626 -0.09215557 -0.16982089 -0.24681741 -0.011555906 -0.09555073
-0.23635212 -0.30123502 -0.07359443 -0.23280554 -0.13189298 -0.096353784 -0.20253024 0.11338458
-0.23326838 -0.1385745 -0.08555007 -0.04533227 -0.1895147 -0.20053545 -0.08691192 -0.333705
-0.06789138 -0.093064554 0.20830818 -0.10358366 -0.08540949 -0.13300481 -0.27333233 -0.14056605
-0.24485476 -0.15406089 -0.089154005 -0.111581534 -0.052344024 -0.2972535 -0.0840776 -0.076088734
0.049008295 -0.018713387 -0.21717168 -0.23852326 0.083367735 -0.18208286 -0.0114882635 -0.13419122
0.18778269 -0.021303294 -0.028224926 -0.082684085 -0.07254349 -0.15110664 -0.09785178 -0.22571893
-0.06719349 -0.16556278 -0.04323192 -0.14378388 -0.20431352 -0.15742427 -0.06371329 -0.26714244
-0.033620376 -0.04124985 -0.047303956 -0.19286686 -0.075114734 -0.025118478 0.19504999 0.04759187
-0.12665415 -0.08311848 0.018152757 0.035870083 0.13129774 -0.19128218 -0.20301181 -0.05116003
-0.052130558 0.1397363 -0.09296434 -0.07580313 -0.028657056 -0.16851318 0.12485912 -0.062497623
-0.13407351 -0.0038659796 -0.009320582 0.009307728 -0.03597784 -0.08170849 -0.28448766 -0.23287722
0.056379046 -0.04359999 -0.12260759 -0.066201724 0.07469203 -0.2779506 -0.070936136 -0.28557777
-0.42477944 -0.16321369 -0.09731248 0.010557134 -0.1516541 -0.16279235 -0.2576063 0.097078376
-0.024258679 -0.10541459 -0.12923738 -0.15139173 -0.08876489 0.09113488 0.042177107 0.040680863
-0.05910141 -0.16764519 -0.009847068 -0.18510093 -0.029142559 -0.053884614 0.10019862 0.11877682
0.052936643 -0.24083397 -0.14424719 0.066081785 -0.01817124 -0.20645975 -0.027337465 0.120225966
-0.11006613 -0.24972382 -0.14588796 -0.16878963 -0.05304517 -0.033159673 0.047294673 -0.1154693
0.049945597 -0.16038422 -0.029474827 0.086539246 -0.19022068 -0.17783597 0.02478312 0.02700397
0.078427196 0.0038151145 -0.01863453 -0.07581135 -0.070046104 0.0807361 -0.09972922 -0.05329298
-0.04147593 -0.12838915 -0.08828445 -0.19333698 0.08557778 -0.19870327 0.017331818 -0.096574925
0.022515796 0.00022536995 -0.05563295 0.14770661 0.050678205 -0.09950854 -0.0155908 -0.13053933
-0.069545776 0.073672324 -0.060683157 -0.120377064 -0.10426072 -0.06156999 0.022908403 -0.13388185
-0.11818197 -0.082881354 0.0073313075 -0.17611389 -0.06705497 -0.052718204 0.006239259 -0.045686886
-0.06439857 -0.23621072 -0.21786952 -0.19563013 -0.26090363 -0.00394156 0.1051878 0.1148194
00000000: 13cf 56be a9a2 50bd 8f9b 58be 0ca3 4cbe
00000010: 8a6f 57bd 5bf9 363d 644d bf3b 1453 babb
00000020: fedf aebe df86 d9bc ef6e b73c 89a1 aabc
00000030: cf46 6c3d 5f03 113d a1b1 3abe 4d26 2bbd
00000040: c9af 97be 8333 33be cbfc 60be be66 90be
00000050: 6174 d0bd 776c 233d ea18 06bd b85b c2be
00000060: ffd8 39be 006e 84bc e0ac 2ebe f0ec 31be
00000070: 6f9e e83d 7704 68bc 6b33 8cbe b3e3 e0bd
00000080: fc81 e9bd 24c8 963c 0998 abbd b255 d0bc
00000090: 89e4 10bd ab37 15be ae35 24be 34f4 74b9
000000a0: dee2 35be c99a 6cbe 481e 30be e007 69bc
000000b0: 5c2a d4bd ee5d 0e3e 44d6 f6bd 48ad 8b3d
000000c0: 0289 27be 198b 19be 8df2 c6be 494f 90be
000000d0: 0e25 d13c b753 bfbe 6669 f4bd 4217 a0bc
000000e0: 3762 82be a137 2cbe 5e1c eebc 0fbc bcbd
000000f0: 87e5 2dbe b4bd 7cbe fc54 3dbc 1ab0 c3bd
00000100: 4a06 72be 7a3b 9abe adb8 96bd 9364 6ebe
00000110: f40e 07be 2255 c5bd 1664 4fbe 2d36 e83d
00000120: e8dd 6ebe 79e6 0dbe e034 afbd 55ae 39bd
00000130: 2410 42be 2a59 4dbe e0fe b1bd 62db aabe
00000140: a30a 8bbd a198 bebd bd4e 553e ac23 d4bd
00000150: 2ceb aebd 6a32 08be 37f2 8bbe 8cf0 0fbe
00000160: 35bb 7abe 23c2 1dbe 6096 b6bd dc84 e4bd
00000170: b066 56bd 9c31 98be e030 acbd 69d4 9bbd
00000180: ecbc 483d d14c 99bc 4162 5ebe 713f 74be
00000190: b4bc aa3d ee73 3abe 4539 3cbc 6c69 09be
000001a0: 1b4a 403e 3f84 aebc f637 e7bc 4656 a9bd
000001b0: ae91 94bd b3bb 1abe 8466 c8bd dd22 67be
000001c0: be9c 89bd 4a89 29be f413 31bd 153c 13be
000001d0: 9037 51be d433 21be 1d7c 82bd e5c6 88be
000001e0: 85b5 09bd 9af5 28bd cbc1 41bd e47e 45be
000001f0: c1d5 99bd 44c5 cdbc 2fbb 473e b1ef 423d
00000200: a0b1 01be 063a aabd 17b5 943c 82ec 123d
00000210: ea72 063e 7adf 43be 54e2 4fbe 2e8d 51bd
00000220: da86 55bd 0817 0f3e 1664 bebd ac3e 9bbd
00000230: 34c2 eabc b88e 2cbe 23b6 ff3d 82fd 7fbd
00000240: 914a 09be 605c 7dbb 5bb5 18bc 717f 183c
00000250: 805d 13bd c856 a7bd 5ea8 91be 5e77 6ebe
00000260: b7ed 663d e795 32bd b019 fbbd c594 87bd
00000270: 23f8 983d 8b4f 8ebe f746 91bd 4037 92be
00000280: b17c d9be 7d21 27be c44b c7bd d4f7 2c3c
00000290: 364b 1bbe 0ab3 26be f9e4 83be 07d1 c63d
000002a0: 23ba c6bc 9be3 d7bd ce56 04be 6f06 1bbe
000002b0: 5eca b5bd eda4 ba3d e7c1 2c3d faa0 263d
000002c0: 5214 72bd 2eab 2bbe 9955 21bc 198b 3dbe
000002d0: 60bc eebc 1db6 5cbd ef34 cd3d 4341 f33d
000002e0: 18d4 583d 2e9d 76be 89b5 13be e355 873d
000002f0: dadb 94bc 2f6a 53be d2f2 dfbc 0839 f63d
00000300: 5a6a e1bd 9ab7 7fbe a763 15be 30d7 2cbe
00000310: e445 59bd 70d2 07bd 0fb8 413d 2b7b ecbd
00000320: c193 4c3d c33b 24be 3175 f1bc 7d3b b13d
00000330: 36c9 42be a21a 36be f805 cb3c 6e37 dd3c
00000340: 709e a03d 0007 7a3b 71a7 98bc fb42 9bbd
00000350: 5574 8fbd f858 a53d d53e ccbd bd49 5abd
00000360: aae2 29bd 7278 03be 7ace b4bd 21fa 45be
00000370: 6743 af3d df78 4bbe 75fb 8d3c 13c9 c5bd
00000380: 0c73 b83c 4951 6c39 60df 63bd 6740 173e
00000390: f393 4f3d 22cb cbbd 8e70 7fbc 1aac 05be
000003a0: 046e 8ebd 84e1 963d e78e 78bd 4088 f6bd
000003b0: a586 d5bd d030 7cbd 67aa bb3c 5318 09be
000003c0: 6409 f2bd b3bd a9bd 773b f03b 3357 34be
000003d0: 1e54 89bd 0bef 57bd b372 cc3b 2c22 3bbd
000003e0: 66e3 83bd 39e1 71be 3019 5fbe 4453 48be
000003f0: 2995 85be 3428 81bb b46c d73d 6f26 eb3d
